models/audio_classifier.pt (torch, 176816 bytes, 31 tensors)

weight f4 [32, 1, 3, 3]
00000000: 1707 da3c 9112 3f3d b554 8c3b 7869 0dbd
00000010: b81c 82bc e318 bb3c a9a8 6ebc 5444 32bd
00000020: 4a81 dfbc a3c1 903d 5835 d3bb d449 4bbd
00000030: 2b77 a9bc 57cb 003d 1224 4e3c bbce 76bd
00000040: 1254 f8bc 080e be3c 2caa 143d 0fe7 203d
00000050: ff88 8eba 9474 06bd acfb d63b 23c1 093d
00000060: e749 ffbc 5502 68bd f245 e8bc a2d8 3cbc
00000070: 395b 643d f205 ab3b 5438 b8bc 34fd 98bc
00000080: d738 c93c b8f9 0cbc 1a93 f0bc 1744 ddbc
00000090: 4ee6 e13c 06e4 413d 047e ab3b 7e10 2cbd
000000a0: 453b ccbc 09ce 9b3c 3242 26bc 7aa1 1fbd
000000b0: 3b73 03bd e0f7 89b9 f840 a4bb 1bb3 91ba
000000c0: de1c 92bc 16da 8abd 3d27 a9bc c081 3abb
000000d0: 7dd9 8eb7 687c 7d3b 7760 30bd dd5a 13bd
000000e0: c653 81bb 1711 1c3c 4874 59bc f4bd 4ebc
000000f0: c367 183d 23c2 803d 77d7 d83c e7a3 813d
00000100: 0f51 8d3d 754d d4bb 9d57 6ebd a549 bdbc
00000110: e4bd 5d3d 251a 04bd 7fc5 52bd 1c2b 6bbd
00000120: 7a52 eebc 0ad8 4fbc ea07 88bc 1272 723c
00000130: 3db3 14bd c7a6 cfbc 5f07 1bbd 18be 14bd
00000140: 77ef c3bc c1c2 e7bb b431 fc3c cbc8 413c
00000150: 788b 21bd 4d2a 10bd 1350 7dbc 5240 bdbc
00000160: 7222 d5bc 7973 05bd 985d 5a3c af5c 8bbc
00000170: 3bba ad3c c155 b9bc 2a96 edbc dee9 07bd
00000180: c51b 9abc 7b79 e3bc b71b f0bc 4139 d53c
00000190: c2bd 04bd 68ee 093a 6b32 903c 7e3a b2bc
000001a0: ff68 a2bc a31d c6bb ccc4 5dbd f4c6 e7bb
000001b0: 0f87 9ebc 897a 1dbd e2ef c8bb e710 5dbd
000001c0: 1211 7fba 77a6 0fbd ce0a 96bc 1e24 dfbb
000001d0: 874b 12bc b9aa c1bb 26f9 6bbc d295 51bc
000001e0: 19fc 56bd ca3c 05bd bf8c 5abb e767 6fbd
000001f0: 1016 503d fb18 f8bb bf50 1e3d 558d 96ba
00000200: 1ff6 e8bb 0e03 853c f845 9d3c 2a4a 1b3c
00000210: 9235 f7bc 1e0c 883c bba7 143d f466 9a3d
00000220: 09a4 e538 9ddf 4f3d ab67 9dbc d903 4fbd
00000230: 18fb f8bb c38b 0fbc 1250 cabb a95b aeba
00000240: 083e 26bd 2e93 ad3c 0613 863d 6b73 36bc
00000250: 3237 adbc fd22 2dbd da0b 4b3d beaa c43b
00000260: caf0 20bd 445a ddbc fc8d 58bc 371c 91bc
00000270: 3ace 21b9 8bfd e23c 4d83 8339 01b9 34bc
00000280: 4f6f 123c d3b9 1dbc 5420 7c3b f598 0dbd
00000290: bbc5 eabc 7827 393d 4996 00bb 4d4d f8bc
000002a0: fad9 cdbc 384a 083d 76fe 023d 9c36 4c3d
000002b0: e0bd 45ba c96e f1bc 1569 34bc 1836 b43c
000002c0: d1be 873b eefa 5abd eed8 dabc d456 cf3b
000002d0: 460e 12bd 261f 90bc 2077 4d3c 211d b0bb
000002e0: a0fb 10bc 8507 03bb 76be 093d b056 1b3d
000002f0: 194f b03b 4fa1 d5bc 5b38 f2bb fe45 2cbc
00000300: 5c6b 4cbc c049 423b 7956 bbba 8c8f c9bc
00000310: 926d 46bc 4401 89bc 486d 51bd 14ea 10bd
00000320: 744f ddbb e1e2 493c 953d e6bc fbc3 70bc
00000330: d955 373d 99a1 9d3d 635d cf3c fc66 9cbc
00000340: 5421 683d 9ea0 433c 85b5 74bc 6120 19bd
00000350: ca45 d43b 3a49 87bc 3208 8abc f2d7 04bd
00000360: 561f 90bc 68ae da3c 0f2b 903c 2ccc 9fbc
00000370: 840c 863b 9f8d 853c 04ac f8bb 06b8 ecbc
00000380: bc76 2abd d3ff 55bd 93f5 0ebd 7646 bebc
00000390: d74c 38bc 0689 553d 2375 98bc 9148 0fbd
000003a0: da64 02bd aa01 fbbc ba42 0e3d 0381 f9bb
000003b0: 4c15 bebc 5185 033d bc5b e33c f3c1 b3bb
000003c0: 3f49 56bc 36cc 2e3c 656b 453d 2f33 443d
000003d0: bad0 7fbc 8783 f3bc 8353 d93a f19f e73c
000003e0: 8632 85bc 1094 68bd 833b a3bc b843 0a3d
000003f0: a887 58bb 24ce ddbc 1c25 cebb 938d e7bc
0.026614709 0.046648566 0.004282559 -0.03452441 -0.015882835 0.022839015 -0.014566579 -0.043522194
-0.02728333 0.07068183 -0.006445568 -0.049630955 -0.020686707 0.03144392 0.012581842 -0.060255747
-0.030313525 0.02320005 0.0362951 0.039282855 -0.0010874568 -0.03282602 0.0065607633 0.033631455
-0.03116317 -0.05664285 -0.028353665 -0.011526259 0.05575106 0.0052192146 -0.022487797 -0.018675424
0.024563236 -0.008604459 -0.029367018 -0.027010007 0.027575638 0.0473366 0.005233528 -0.042007916
-0.024930606 0.019019144 -0.010147618 -0.038972355 -0.032092314 -0.00026315358 -0.0050126277 -0.0011116
-0.01783603 -0.06779878 -0.020648593 -0.0028458685 -1.7028995e-05 0.0038678888 -0.043060746 -0.035975326
-0.003946754 0.009525559 -0.0132723525 -0.012618531 0.03720833 0.06287029 0.02646993 0.0633009
0.06900226 -0.00647896 -0.058189023 -0.023106406 0.054136172 -0.032251496 -0.05145788 -0.05741416
-0.029092062 -0.012685785 -0.016605336 0.014797704 -0.036303747 -0.02534808 -0.037848826 -0.0363141
-0.023917897 -0.007072777 0.030785419 0.011827658 -0.03943965 -0.03519659 -0.015460986 -0.02310196
-0.026017401 -0.032580826 0.013327979 -0.017011968 0.021206966 -0.022623898 -0.029002268 -0.033182018
-0.01881207 -0.027767887 -0.02931009 0.026028277 -0.03240753 0.00052616606 0.017602166 -0.021756407
-0.019825457 -0.0060460134 -0.05414276 -0.0070732776 -0.01935151 -0.038446937 -0.006132112 -0.053971197
-0.00097300217 -0.035070863 -0.018315699 -0.0068097254 -0.00892914 -0.0059102443 -0.014402663 -0.012792068
-0.052486513 -0.032528676 -0.0033348051 -0.0584487 0.05080229 -0.0075713373 0.038651224 -0.0011486212
-0.007109418 0.016236808 0.019198403 0.009478131 -0.030176912 0.01660734 0.036292773 0.07539168
0.00010950125 0.050750364 -0.019214472 -0.05054078 -0.007598292 -0.008761349 -0.006174096 -0.0013302463
-0.0405865 0.021188345 0.06546597 -0.011135916 -0.021144483 -0.042269696 0.04957185 0.0060017994
-0.039292134 -0.027020581 -0.013217445 -0.01771365 -0.00015430982 0.02770879 0.00025084094 -0.0110304365
0.008937671 -0.0096268235 0.0038471418 -0.0345697 -0.028658738 0.045203656 -0.0019620827 -0.030310297
-0.025128353 0.033273906 0.031980954 0.049856767 -0.0007543247 -0.029471772 -0.011011382 0.02199845
0.00414262 -0.05346196 -0.026714768 0.0063274894 -0.035658143 -0.017592978 0.012540609 -0.005374566
-0.008849055 -0.0019993496 0.033628903 0.03792447 0.005380523 -0.026077894 -0.007391972 -0.010514734
-0.012476768 0.002964601 -0.0014292739 -0.024604581 -0.012111085 -0.016724236 -0.05112961 -0.035379484
-0.0067538563 0.012322159 -0.028105536 -0.014695163 0.044759605 0.07696838 0.025313085 -0.019092076
0.05667241 0.01194015 -0.014935856 -0.037384395 0.006478046 -0.01651441 -0.016849611 -0.032432504
-0.017593067 0.026694492 0.017598657 -0.019506536 0.0040908474 0.016302882 -0.0075888652 -0.028896343
-0.04161714 -0.052245926 -0.034902167 -0.023226958 -0.011248789 0.05213263 -0.018610543 -0.034981314
-0.03183446 -0.030640442 0.034731604 -0.0076142563 -0.023203515 0.032109562 0.027753703 -0.005485767
-0.013078987 0.010668805 0.048198123 0.047900375 -0.015613729 -0.029725803 0.0016580675 0.028274508
-0.016259443 -0.05678183 -0.019925838 0.033755988 -0.0033039842 -0.027075835 -0.006291045 -0.02826575

bias f4 [32]
00000000: ac46 283c d3b1 14bc c125 2b3c b37d 7533
00000010: e34d 0db6 3895 a6b8 982d 443c 181b 453c
00000020: f5de 8433 8065 86b3 fb67 1933 5cc6 2bbb
00000030: caf4 9632 d98b 2d3b eec6 5ab5 f830 e0b2
00000040: 474f a034 12c3 97b3 e582 b42f 2a86 84b8
00000050: 935a 59b8 a816 cbb2 22e9 263c f238 7bb3
00000060: bf40 38b3 4fb7 8fb2 1e30 4433 5ab4 f5b3
00000070: 80ff 2f3b 1d46 e2bb 6056 b7bb 59cc 5432
0.010270756 -0.0090756 0.010446013 5.715783e-08 -2.1055973e-06 -7.943291e-05 0.011973761 0.012030385
6.1872846e-08 -6.258324e-08 3.5717658e-08 -0.002621076 1.7573615e-08 0.002648106 -8.150081e-07 -2.60993e-08
2.9860004e-07 -7.0669685e-08 3.2834815e-10 -6.3192405e-05 -5.1821185e-05 -2.3642613e-08 0.010187419 -5.8492283e-08
-4.2899725e-08 -1.673075e-08 4.567857e-08 -1.1441507e-07 0.002685517 -0.006905331 -0.0055950135 1.2386487e-08

weight f4 [32]
00000000: 02b8 f03e 63bf f23e 7ff5 f13e 79f3 ef3e
00000010: 918b f13e 9fbe ef3e b4b0 f33e 1485 fa3e
00000020: 45b9 ef3e 7ea1 ee3e 3e82 ee3e 1433 ee3e
00000030: 2517 f03e decb f03e b1c9 ee3e 56a1 ef3e
00000040: 39df f23e 3ba7 f03e efc1 ee3e 852a f03e
00000050: 90af ef3e 1aba f03e d050 f43e c12f f03e
00000060: e50d ee3e bc6d f13e 725a f03e acc7 ef3e
00000070: 9046 ee3e e1fe ed3e beae f43e 1848 f03e
0.47015387 0.4741164 0.4725761 0.46865442 0.47176793 0.4682512 0.4759575 0.48929656
0.46821037 0.46607584 0.46583742 0.46523345 0.46892658 0.47030538 0.46638253 0.46802777
0.4743593 0.47002587 0.46632335 0.4690744 0.4681363 0.47016984 0.47717905 0.46911433
0.46494976 0.47154033 0.46944004 0.46832025 0.4653821 0.4648352 0.47789568 0.46930003

bias f4 [32]
00000000: 142c 12bc 34fa 65bb f05a 09bc c238 4bbc
00000010: 0f6a 20bc ad2f e93a 05b2 d8bc 0440 343b
00000020: 9722 8bbb 0e32 95bc 60be 13bc c2fd c439
00000030: 51d2 41bc 1688 50bb 1775 0fb9 efce 2a3c
00000040: e07c 2abc 1f38 8bbc 67e7 72bc ee07 1bbb
00000050: 263c 0abc 8399 89bc 56fe efbc 6111 79bc
00000060: 999d 90bb 9e39 1dbc 4ec3 f73b 2a5e 66bb
00000070: 9b9f 22bc dabd 48b8 0e84 bdbc 7adf 5fbc
-0.008921642 -0.003509176 -0.008383498 -0.012403669 -0.009790911 0.0017790698 -0.026452074 0.0027503977
-0.004246067 -0.018212344 -0.009017557 0.00037573098 -0.0118299285 -0.0031819395 -0.00013681162 0.010425313
-0.010405749 -0.016994534 -0.014825678 -0.002365585 -0.008437192 -0.016796833 -0.029296082 -0.015201897
-0.0044133184 -0.009596257 0.007561124 -0.003515134 -0.009925748 -4.786053e-05 -0.023134258 -0.013664121

running_mean f4 [32]
00000000: 4a17 393c 444f 21bc c961 3c3c 3074 8938
00000010: a1b8 f638 c5a7 f6b8 edc4 513c 4b17 593c
00000020: 7af0 7ab5 eb18 5238 af9a 8b38 d7f9 3bbb
00000030: ff69 d3b8 9701 3c3b 5a81 8637 3200 2939
00000040: fd3d 1b38 8424 8fb8 3734 81b8 d708 4db7
00000050: a685 37b9 c08b 3bb8 835e 323c 9988 8138
00000060: 4291 6c38 6f9e c0b8 f1bf 4f36 fa8e 1038
00000070: db33 453b 7970 f6bb 3f96 cabb 7c8f c7b8
0.011297056 -0.009845559 0.011497923 6.554311e-05 0.00011764584 -0.000117614436 0.012803298 0.013250182
-9.3482197e-07 5.009111e-05 6.6568486e-05 -0.0028682852 -0.00010081007 0.002868747 1.6034279e-05 0.00016117169
3.701261e-05 -6.825573e-05 -6.160925e-05 -1.222101e-05 -0.00017502028 -4.4714427e-05 0.010886791 6.176643e-05
5.6402067e-05 -9.184784e-05 3.0957128e-06 3.4465433e-05 0.0030090723 -0.007520732 -0.0061824615 -9.5157855e-05

running_var f4 [32]
00000000: ad21 123c 5384 203c 1aa6 393c c67d ca3b
00000010: 67d2 1c3c 668e 153c 2623 4a3c 68d7 b33c
00000020: d029 903c 974f 603c 4143 4e3c f628 123c
00000030: dec0 8a3c 4f31 593c 6f1d cb3b 0c09 043c
00000040: d1a7 063c 9ff3 583b 276b c63b f80b cf3b
00000050: 264e a43b d48f a33b 0f62 863c 6dd5 fb3b
00000060: a1c8 b93b db4f 5c3c 9142 003c 19cd c93b
00000070: 6c2a 1b3c 3ccc c53b d23a 483c 7498 303c
0.008919162 0.009797174 0.011331106 0.006179544 0.009571648 0.009128189 0.012337482 0.0219533
0.017598063 0.013690851 0.012589277 0.008920899 0.01693767 0.013256385 0.006198577 0.008058798
0.0082187215 0.0033104194 0.006055254 0.0063185655 0.005014199 0.004991511 0.01640418 0.0076853544
0.005669669 0.013446773 0.007828371 0.0061584827 0.009470563 0.0060363095 0.012221055 0.010778535

weight f4 [64, 32, 2, 2]
00000000: 8c82 8b3b 941e fb3a 4f1a b73b de97 c93a
00000010: f0fd 4a3b 8c7c 953b a359 f13b 3b33 c33b
00000020: 8d01 bd3b 15db 763b 4a47 df3b d4a7 073b
00000030: a5f4 b13b c1a1 923a d2dc 9c3b dd45 4bba
00000040: 7db2 8d3b cc37 263b 4d85 bc3b d293 183b
00000050: c6d0 8cbb a6de 8abb 27b6 54bb 4d80 74bb
00000060: 668c 0e3c b301 663b aceb c63c cfa8 583c
00000070: 8904 bf3b 59a0 913b a08f f73b 8057 433b
00000080: fd0e bcbb e0bd afbb 47d6 8bbb 98b2 ebba
00000090: 1d70 9cb9 a404 2bbb d140 6f3a 9e41 7aba
000000a0: 17bc 31ba e0d3 ffba 89ed e138 cf61 84ba
000000b0: 3e32 a4bb 6878 0ebb 7c1e b1bb 205b 91ba
000000c0: 4d5e 8bbb 4452 8bbb 89b9 98bb 94e2 90bb
000000d0: 1392 04bb 78c6 7dbb aa2e 413b 4771 a2bb
000000e0: 0d9e e63b 777c a03b 39a6 123c 7e11 48b9
000000f0: 66ab 0cbc c1c6 54bb 8069 ffbb e70a 98bb
00000100: 68db 143c a436 da3b 1e78 2f3c acb7 d93b
00000110: 6eb3 a3bb fa9f 9abb e900 a6bb 31e1 91bb
00000120: 442d 9d3b 4ad4 9f3a 1bba 653c cdc2 573b
00000130: fd4c 753a 055a 813b ae62 4f3b efd5 c43b
00000140: f2b5 0a3c bc8a a73b 3cdf 8c3c 96f3 503c
00000150: 3c06 99bb 010c 92bb 800d 9fbb 731e 91bb
00000160: 16f4 243c 1526 9a3b b8e0 d23c afe2 733c
00000170: 90d1 343b fe4b 3eba 9008 4a3b ad4c 5bba
00000180: e9df c03b ab22 a139 da9d 1f3b 2a96 47bb
00000190: e6ef f6bb 710e eabb 0267 d7bb b542 b6bb
000001a0: 9f72 de3b 1d1a ab3b 840e 633c 3641 c43a
000001b0: 37cf 9d3b 3044 9d3b 425b e63b 1b10 c03b
000001c0: 8ac9 54b8 17b7 cdb9 8d0e 073a 2e5e f63a
000001d0: 7f14 db3b bd7c 513c d4cb 03b8 3a50 0e3b
000001e0: 96ab f63b 5576 a73b 94b6 923c cdb2 dc3b
000001f0: b88b 99bb fed3 96bb d9f2 a7bb 7138 9abb
00000200: f53e 953b b037 91ba 4b91 4c3c 908f d13a
00000210: 803b b43b e5e5 5b3c cc51 843b ead7 513c
00000220: 8402 e93b a364 dc3a fd58 813c 12a4 443b
00000230: da54 ef3a 78d1 e6bb 09d0 273c dd81 06bc
00000240: 85d3 113b 9d02 42ba 65fb 663c 2e72 ec3a
00000250: 024b fbbb 1af8 8fbb 37e1 ccbb 9079 f6bb
00000260: aa87 ad3c 3651 b23b 5288 dd3b 56f2 51ba
00000270: 4a60 883c 1bc5 173c c1aa e43c f4f0 563c
00000280: 907b aebb 8f06 cc3a 29b0 d4bb 8ef8 8fbb
00000290: 4146 a1bb 5e1f 1abc 9248 e1b9 7cb8 1fbc
000002a0: 8a0f 07bc 1a42 1abc cbfb 86bb 78b4 fdbb
000002b0: 7058 0fbc b3cb 663a 09b6 11bc dba0 4ebb
000002c0: df30 82bc ced3 72bc 079e 64bc 79e2 50bc
000002d0: 51c0 863b 5308 d0bb 6361 6ebb a5fc ffbb
000002e0: a75e 143b e8c5 58bb 669b 1abc 6a50 f5bb
000002f0: 69b3 4abb 117a e83a 3632 893a 18b0 6bbb
00000300: 41b3 b83c a10d e13b d698 b13c 8bdf 1fbb
00000310: 4589 8dbc 6579 80bc c6ac 87bc 2fed 77bc
00000320: 39aa 003c 088c 5fbb 51b7 4ab9 87ee 1cbb
00000330: 8368 2abb 1e70 1c3c 35c3 f4ba 8a2d e53b
00000340: eb2d d43b 96dc 0eba 96c8 7fbb c4ee 1cbc
00000350: b354 8fbc 1347 82bc 7ab4 85bc b17c 7abc
00000360: 63df c43c e4a1 013c b10b 263c 9b27 923a
00000370: 7c0a ea3a 8748 e3bb 6803 213c d406 0ebc
00000380: b030 413b 2926 c3bb a268 a93b c50b 21bc
00000390: 81e3 bcbb 53eb 14bc a19e f6bb c40e 4dbc
000003a0: 187a 2b3c a86e 2cbb 2e6d 15bc 180a d2bb
000003b0: 9946 cc3b d977 033c d63a e6ba 2730 c73b
000003c0: 2c05 0fbc da20 eebb 2f89 20bc 07be 0dbc
000003d0: a9be 1fbc a305 383a 18c6 4dbc 534c 19bc
000003e0: a182 e23c 1e08 6c3c 4cdd 8b3c abd5 473c
000003f0: 95c9 8abc de42 7ebc 6944 88bc 34f3 79bc
0.0042575058 0.0019158893 0.005587853 0.0015380343 0.0030974112 0.0045619663 0.007365422 0.005957035
0.005768007 0.0037667204 0.0068139182 0.0020699399 0.005430775 0.0011187122 0.004787066 -0.0007754246
0.004324256 0.0025362847 0.0057531954 0.0023281467 -0.0042973487 -0.0042379675 -0.0032457204 -0.0037307919
0.008700466 0.0035096228 0.024282299 0.013223841 0.005829398 0.0044441638 0.007554963 0.0029806793
-0.0057390914 -0.005363211 -0.004267487 -0.0017982302 -0.0002983817 -0.0026095295 0.0009126785 -0.0009546521
-0.0006780042 -0.00195181 0.000107730804 -0.001009995 -0.005010872 -0.0021739248 -0.0054052453 -0.001108978
-0.004253185 -0.00425175 -0.0046607894 -0.0044215415 -0.0020228669 -0.0038723033 0.0029477277 -0.0049573514
0.007037884 0.00489765 0.008950763 -0.00019080003 -0.008585786 -0.00324671 -0.007794559 -0.0046399715
0.009085514 0.0066593457 0.0107097905 0.00664421 -0.004995755 -0.0047187777 -0.0050660265 -0.0044518937
0.004796656 0.0012194004 0.014021422 0.0032922507 0.00093574804 0.0039474987 0.003164451 0.006006948
0.008466231 0.005112974 0.01719629 0.012753388 -0.0046699326 -0.0044569974 -0.0048539042 -0.0044286787
0.01006796 0.0047042468 0.02574192 0.014885589 0.002759073 -0.00072592485 0.0030827858 -0.00083656126
0.005886067 0.00030734143 0.0024355561 -0.0030454495 -0.0075359223 -0.007142835 -0.006573559 -0.0055621513
0.0067885662 0.005221619 0.013858441 0.0014973048 0.0048159617 0.0047993883 0.0070299217 0.005861295
-5.0732437e-05 -0.0003923706 0.00051520095 0.0018796378 0.006685793 0.012786088 -3.1422664e-05 0.00217153
0.007527779 0.005110542 0.017909326 0.006735182 -0.004685845 -0.004602908 -0.0051253852 -0.0047064354
0.004554624 -0.0011079218 0.012485812 0.001598822 0.005500257 0.01342151 0.0040380713 0.012807826
0.0071108956 0.001681466 0.015789503 0.003000502 0.0018259541 -0.0070440136 0.010242471 -0.008209673
0.002225132 -0.0007400902 0.014098023 0.0018039399 -0.0076688537 -0.0043935897 -0.0062524336 -0.0075218156
0.021182854 0.00544181 0.0067606354 -0.0008008828 0.016647477 0.009263302 0.027913453 0.013118971
-0.0053247884 0.001556592 -0.0064907265 -0.0043936437 -0.004921705 -0.009406893 -0.00042969413 -0.009748574
-0.008243451 -0.009415174 -0.0041193715 -0.007742461 -0.0087491125 0.0008804157 -0.008893498 -0.0031528983
-0.015892444 -0.014821006 -0.013953692 -0.012749308 0.0041122814 -0.0063486486 -0.0036373965 -0.0078121
0.0022639425 -0.0033076946 -0.009436464 -0.0074863927 -0.003092969 0.0017736574 0.0010467235 -0.0035963114
0.022546412 0.00686808 0.021679323 -0.0024394717 -0.01727737 -0.015682885 -0.016561877 -0.015132233
0.007853084 -0.0034110565 -0.00019332512 -0.0023945884 -0.0026002235 0.009548215 -0.0018673899 0.006993954
0.0064752004 -0.000544974 -0.003902947 -0.009578411 -0.017496442 -0.015903031 -0.01632141 -0.015288518
0.0240323 0.007912133 0.010134623 0.0011150719 0.0017855908 -0.006936136 0.009827472 -0.00866862
0.0029478483 -0.005955477 0.005169944 -0.009829466 -0.0057644253 -0.009089309 -0.0075262343 -0.012515727
0.010466121 -0.0026311073 -0.009120269 -0.0064098947 0.006234002 0.008024179 -0.0017565142 0.0060787383
-0.00872926 -0.0072671 -0.009798332 -0.008651263 -0.009750047 0.0007019883 -0.012559436 -0.009356576
0.02765018 0.014406232 0.017073296 0.0121969385 -0.016941825 -0.015518872 -0.016634183 -0.015255738

bias f4 [64]
00000000: 437b 0233 e828 88b4 b27d c12f 043c 5eb3
00000010: c0ef 24b3 d6bd aab3 b29e 3532 61b6 fc32
00000020: 952a af34 edfb f6b1 4d39 0332 3d08 fb33
00000030: 3d87 3e31 e7f1 eb32 a438 1833 32e7 0db4
00000040: 003e 73b2 e5e5 cd32 f8d8 a332 2cc7 0c34
00000050: 5d85 a7b3 9e34 b032 dfcb b7ae 5803 f5b1
00000060: e213 c9b2 dad3 afb2 10e8 8233 59df 8932
00000070: d41e f533 d15a 63b3 43da fa32 6600 3034
00000080: 72cc 7232 9dcc 3633 be48 9533 19b6 a6b2
00000090: 241c 4033 a72c 26b2 6f4f 10b3 6baf 4634
000000a0: b436 df34 1aba 98b2 c766 a433 3d70 0c33
000000b0: 60ce a632 738e b933 12c3 98b2 ec89 4d35
000000c0: 74b4 8b33 1ae7 ca33 8ea8 d7b0 8784 b8b4
000000d0: 7120 ee32 9b2e 6ab3 5a89 0732 4eb6 2834
000000e0: d9a2 2831 79c9 c831 6cb6 0833 d646 85b2
000000f0: 86a6 1933 e252 9833 51a3 97b1 4edb 4cb2
3.038009e-08 -2.5361737e-07 3.5195807e-10 -5.1742987e-08 -3.8402277e-08 -7.950773e-08 1.057167e-08 2.9419597e-08
3.2627273e-07 -7.188183e-09 7.638232e-09 1.1689597e-07 2.7725513e-09 2.7467605e-08 3.5441772e-08 -1.3215757e-07
-1.4158559e-08 2.3969685e-08 1.9074363e-08 1.3110974e-07 -7.800802e-08 2.0513024e-08 -8.358091e-11 -7.1308186e-09
-2.3408521e-08 -2.046902e-08 6.095809e-08 1.6050466e-08 1.1414309e-07 -5.2935153e-08 2.9203084e-08 1.6391422e-07
1.4132739e-08 4.2561272e-08 6.951585e-08 -1.9407752e-08 4.4729077e-08 -9.6726245e-09 -3.3599857e-08 1.8504004e-07
4.157679e-07 -1.7779758e-08 7.65554e-08 3.269837e-08 1.9418792e-08 8.640645e-08 -1.7783837e-08 7.6569154e-07
6.505516e-08 9.448395e-08 -1.5691215e-09 -3.4369097e-07 2.77216e-08 -5.4524758e-08 7.889264e-09 1.5712541e-07
2.4539786e-09 5.843671e-09 3.183088e-08 -1.551545e-08 3.577454e-08 7.093128e-08 -4.4132453e-09 -1.1924227e-08

weight f4 [64]
00000000: 9677 f13e 22cd f93e 38d5 f73e a73f f03e
00000010: 4544 f93e 777c f53e a098 f53e 8d90 f13e
00000020: 3a4f f93e c034 f83e 0069 fa3e 372b f53e
00000030: 6d20 f83e e6f4 fa3e a716 f03e d104 f13e
00000040: f944 f13e da00 f83e adb2 f13e 9a58 f33e
00000050: 0a16 fe3e d43f f03e 4ee4 fa3e 4349 f33e
00000060: ff07 fb3e 2c76 f83e b5e1 f03e d35f f03e
00000070: c21f f13e 36c5 f83e 653e f03e e6e9 f43e
00000080: c702 fc3e 0c43 f73e 1845 fe3e 5b08 fc3e
00000090: 43d4 f33e 557e f23e 99eb f63e 3758 f63e
000000a0: b74c fe3e 06b8 fc3e 0a49 fa3e 4a33 f33e
000000b0: e8bf f13e b982 f43e 4c37 f03e a5c1 fe3e
000000c0: 6db6 f23e 580c fa3e d89b f13e dea7 f13e
000000d0: 056d fe3e e474 f63e 5556 f93e 22ae f33e
000000e0: 0830 f73e ce60 f43e 0410 f03e fc60 fe3e
000000f0: f88b f23e ffe0 f93e 9ee3 f23e 8166 f13e
0.4716155 0.48789316 0.4840486 0.46923563 0.48684898 0.47946522 0.47968006 0.47180596
0.48693258 0.48477745 0.48908234 0.47884533 0.4846224 0.49014968 0.46892282 0.47073987
0.47122934 0.4843815 0.4720663 0.47528535 0.4962619 0.46923697 0.49002308 0.47516832
0.49029538 0.48527658 0.470472 0.46948108 0.47094542 0.4858796 0.46922603 0.478347
0.4922087 0.4829334 0.4966209 0.49225125 0.4762288 0.4736201 0.48226622 0.48114178
0.49667904 0.4935915 0.4888385 0.47500068 0.47216725 0.47755983 0.46917188 0.49757114
0.47404805 0.48837543 0.47189212 0.47198385 0.4969255 0.48136055 0.4869868 0.4759379
0.48278832 0.47730106 0.4688722 0.49683368 0.47372413 0.4880447 0.47439283 0.47148517

bias f4 [64]
00000000: 16f9 1c3c 5cb8 28bb cca4 69bb 2a1b 933b
00000010: 9ee0 00bc d3fe 6cbb 2e25 f6b9 9872 52b9
00000020: 6a0b 853b dfc0 14bc e98a 1abc 8524 2dbc
00000030: 1651 ceb9 b0d2 ff3a 882b 123c d34e 8c3b
00000040: 47ed 64bb 08ea 223b 2f4c 03bc 6826 f4bb
00000050: b8c0 9bbb b8c2 803b bf46 35bb 17ae 41bb
00000060: 2153 54bb 6e66 d8ba 872a 083b 52fe 0f3c
00000070: 0db4 6f38 98dd a5ba df2b d3ba cd3c 57ba
00000080: 1031 afbb dbe4 8b3b 64e6 0cbb 47ba 003c
00000090: 2243 d2bb eff7 21bc 8fe1 203a 61ef 08bc
000000a0: 5632 ea39 0dce 3bbb 1d42 e1ba 9a5d 183b
000000b0: 4d44 cbbb 8538 ac3b 57d1 39bb 361c f93a
000000c0: 2cda ab3b 0c84 2ebb 9069 8cbb 768d 9f3b
000000d0: 8520 34ba fdc7 2c3c e952 2dbb 826d 28bc
000000e0: 604c 2238 40ad 1dbb eb65 37b8 ee1d ccb9
000000f0: 97c4 29bc 159a 573a a159 25bc 8285 8b3a
0.009580871 -0.0025744652 -0.0035651205 0.004489322 -0.007866053 -0.003616263 -0.00046948477 -0.0002006985
0.0040601986 -0.009079187 -0.009432533 -0.010567789 -0.00039351796 0.0019517746 0.0089215115 0.0042818575
-0.0034931467 0.0024858732 -0.008013769 -0.0074508674 -0.0047531985 0.0039294623 -0.0027660576 -0.0029553229
-0.0032398182 -0.0016510019 0.0020777301 0.008788662 5.7149726e-05 -0.0012654541 -0.0016111097 -0.0008210659
-0.005346425 0.004269225 -0.0021499628 0.007856912 -0.0064166943 -0.009885772 0.00061371265 -0.008357854
0.0004466946 -0.0028656751 -0.0017185841 0.002324915 -0.0062032104 0.005255761 -0.0028353536 0.00190056
0.005244514 -0.0026629 -0.004285045 0.0048691584 -0.0006871301 0.010545728 -0.0026447123 -0.010280015
3.869494e-05 -0.0024059564 -4.372552e-05 -0.00038932211 -0.010361812 0.0008224559 -0.01009217 0.0010644647

running_mean f4 [64]
00000000: 1b9b b33c 281b 8bbb 0f3e c53b 69af 26bd
00000010: a848 e13c 02fa 25bb 4bdd 853c af7d f23c
00000020: 5d13 9a3c 0df6 063d 3fb2 86bb 4d17 af3d
00000030: f3d9 0b3a 073c 05bc c182 1bbd 7fd2 2bbd
00000040: 13dd 8f3c c0f6 263d cca5 653b bc88 c63d
00000050: 7a12 8e3c 65f8 da3c 3f37 d3bb 5b8f f43b
00000060: eb6b ff3c 55b3 4a3c 91b1 0dbd c52f 20bd
00000070: 893c 4ebd e3bd 22bc d319 203b 21ae 52bd
00000080: bab1 a83c 2d59 6f3d 8f7a ae3b 4493 e83c
00000090: 4407 f83c ba44 253c fcea c03a a743 a43c
000000a0: 7a69 ea3a 156d 983c e70c 233c 7ea9 563c
000000b0: 02d3 ff3b cfc6 bc3c b4f4 cf3c 0c9d 973c
000000c0: 9ecf a0ba 242e f6ba 5bc8 e93c 4b5e 7b3a
000000d0: 3efc 8c3c 588b 643b 69f0 873c a9b8 1d3d
000000e0: 6299 6ebb f370 293c d1fa edbc 2a79 87bb
000000f0: 6cfb e63b 51e1 5439 34f8 0b3d a9cf 653c
0.021924546 -0.0042451806 0.006019361 -0.040694628 0.027500466 -0.0025326018 0.016340872 0.029600946
0.018808061 0.032949496 -0.004110604 0.08549366 0.0005334906 -0.008131987 -0.037966494 -0.04194879
0.017561471 0.040762663 0.003504145 0.09694049 0.017342795 0.026729772 -0.006445795 0.0074633784
0.031179389 0.012371858 -0.03459317 -0.039108057 -0.0503507 -0.009932968 0.0024429455 -0.051435594
0.02059256 0.058434654 0.0053246687 0.028390534 0.030276902 0.0100871865 0.0014718468 0.02005179
0.0017884218 0.018606702 0.009951807 0.0131019335 0.0078071365 0.023044018 0.025385238 0.018507503
-0.0012268906 -0.0018782062 0.02853792 0.0009588941 0.017210122 0.0034873094 0.016594129 0.038506184
-0.0036407341 0.010341871 -0.029050263 -0.004134317 0.007049015 0.00020301832 0.03417225 0.014026561

running_var f4 [64]
00000000: ebbe d03c b57c 923c e963 a33c f44b 123c
00000010: e578 173d b416 c33c 0f19 033d d733 3a3d
00000020: 975f 163d 284c 0d3d 9bbe 813c 77b1 7a3e
00000030: 47ba 8d3c 89a9 983c 8099 2c3c 8268 5c3c
00000040: 058c 0e3b 196e 783d ee80 923c 741b 753e
00000050: 0cb9 fc3c cd5a 5a3d 8ed8 8d3c ebf5 4a3c
00000060: 44bc 163d 832b de3c b28a 523c 61f0 0c3c
00000070: d960 223d 562b 533c be9c f13b a98b 263d
00000080: fab8 aa3d 3a71 9e3d f239 6b3c 656c a73d
00000090: 57ed 213d 30c9 363c fd83 c23c 5a45 353d
000000a0: aee0 de3c be9e 253d 0724 a83c 388e ca3c
000000b0: a591 133c a16b db3d 24ff 943c 4b30 f83c
000000c0: e717 1d3c 332d b13c cf9c b93c 6bf4 4e3c
000000d0: 3a6e 1b3d 1d18 b73c ae25 d63c 9496 d13d
000000e0: 09dc 8e3c bba7 173d 9533 b83b cee9 a63c
000000f0: f6b2 473c 123b a83c 4f5d 273d cc7e f83b
0.025481662 0.01788173 0.019945102 0.008929241 0.03698053 0.023814537 0.03200632 0.045459595
0.036712255 0.034496456 0.015837958 0.2448176 0.017300738 0.018635528 0.010534644 0.013452651
0.0021750939 0.060651872 0.017883744 0.23936254 0.030849956 0.05330925 0.017315175 0.012387733
0.036800638 0.027120357 0.01285045 0.008602233 0.039643142 0.01288875 0.0073734215 0.040660534
0.08336063 0.0773644 0.014357077 0.081749715 0.039532986 0.011156365 0.023744578 0.044255592
0.027206745 0.04043459 0.020524992 0.024726018 0.009006892 0.10713888 0.018188067 0.030296465
0.009588218 0.021627998 0.02265778 0.012631516 0.037946917 0.022350365 0.026141014 0.102337986
0.017438905 0.037025195 0.0056213834 0.020375159 0.012188664 0.02053598 0.04086047 0.0075834747

weight f4 [32, 1, 3, 3]
00000000: 40df 173e 9cb4 3ebe cfbc 113e 224d aabd
00000010: 7b14 413e 14cf dcbd cd1a 7e3d 7f9d 1fbe
00000020: 3ac5 8c3d 6ce0 d13d ebc8 82bd 5701 273d
00000030: 1a91 bfbc f23b 52be ab30 6b3e e356 a7bd
00000040: 1b25 d5bc f86c 58be b7ad 6c3d 783e fe3c
00000050: 1b9a fa3c bca4 113d e9ee 833d 228d b8bc
00000060: fbc8 0c3c 782a e6bc 5d07 f9bb 680f 95bd
00000070: 32be 82bd 7744 91bd f294 363d a831 6d3d
00000080: 21fb f93d d179 4d3d a7bf e93d 4d7e ca3d
00000090: bb15 843d e971 023e 1595 fdbd 7904 2fbd
000000a0: 9729 963d 99ea ba3d 74cd 6a3d 25f8 5ebb
000000b0: 0ca7 8ebc 131c 193a 9328 093d 8623 c53c
000000c0: 57bd 1f3e e5db 033d afef f6bd 2251 103e
000000d0: bee9 ec3d ea86 7abc 6968 1e3e 7702 413d
000000e0: 7e30 2abe d5bb a6bc e827 ed3d 771b 2bbc
000000f0: ba2b 54bd e515 e33d 1cbe 8f3d 3430 8b3d
00000100: b61d 03bb f27b 303d 8141 d7bb 6178 e83c
00000110: 7e84 393d 0efd cfbd 0c8c 443c 1ff0 b5bd
00000120: ff96 753b 697e 463d 1619 0f3c d595 f43d
00000130: 3695 8dbd 4bdc 01be 1d31 1c3d a7ac b9bd
00000140: e78f 12be 5ad4 c4bd 1a4e c63d 894e 063d
00000150: 4124 333d 6da6 1a3e 38a0 cfbd 4b9a 3dbe
00000160: 6fd0 29bc 732b 5c3e 33f5 423c 4b90 c03d
00000170: 54e3 8b3d 4438 04be 601f 5b3d 5f5c 18bd
00000180: 9ddf 393c 296c 4a3d 9724 4a3d 012a d13d
00000190: ddb6 4cbd 2285 2e3d f9d6 afbb d58c cfbd
000001a0: dffa 6abc 39e8 06bd e6bb babd 1e48 f3bd
000001b0: e74e 583d 38a2 a0bd 18d3 09be bc37 1cbe
000001c0: 9afe 54bc 362b 933b 2f9b bb3d 8429 dabd
000001d0: 1973 76bd 5b29 463d ca7b 093d 1fc3 4f3d
000001e0: 36ec 933c 36c7 c2bd fca3 babd e73e 9e3d
000001f0: 5a39 453c ed34 1cbd 2f82 e23d 8112 4bbe
00000200: ffdd b23d 2cc0 2e3e caf1 49be c8e6 213d
00000210: 6fb6 e4bd e0ce 10bd 38f3 43be 93d3 ffbd
00000220: 21b4 c6bc 4c16 72bd 61a9 e8bc d40a 06bc
00000230: c986 c6bd 06b2 b83d 304f 223d 6094 86bc
00000240: e47c c5bb 6bf2 cbbc e868 273e a37e c1bd
00000250: 805b 423c 84b9 3cbc d0e1 91bd 5ef8 e03b
00000260: 8305 c83d 0da1 ba3c 6edf 073d 28aa 313c
00000270: cab2 433d 42c9 713c 28bc 173d d482 f33d
00000280: caa2 0d3e 5524 223d f1d9 0ebe f6e0 acbc
00000290: 80a3 0d3e 219b 26be e956 12bd aadf 023e
000002a0: 2f95 283e 08b1 aabd be09 77be ae8b e1bd
000002b0: 7610 0d3e c1fd 53bd 1844 76bd 1d00 b43d
000002c0: f5e6 023d c539 44bd 5ded e83d 36c4 42bc
000002d0: 0030 aabc e263 e1bd 5099 20bc bd09 ccbd
000002e0: 3972 ca3c 75e7 f2bb 659e ed3d a482 453c
000002f0: 0722 08bd b0ed 6dbd 990c 2cbe 24b3 113e
00000300: 3cad 2cbe 2f0d 9a3d 479a 663d 41e1 1a3b
00000310: f5d6 803d 4754 a83d 4378 25bd c6d5 0cbd
00000320: 74ca 193c 3e6a e03d 7369 203d 4b14 0a3e
00000330: a32b b23d 3f40 df3c 9207 ae3d d2e3 393d
00000340: 00a5 4d3b 7722 0fbd 9df1 6d3d ce84 3e3d
00000350: a9f4 d83d b6c0 3d3c 95b0 043c 46b2 3abd
00000360: 3d8e 98bd aeb4 7f3e a6b1 1dbe b571 643e
00000370: 945d 8abe e627 343e 14f9 ff3c 4faf 5abd
00000380: cc8b 943c c64b c1bd 1dc0 f03c 1e62 083e
00000390: c43f a93d 9a9d a53d a5ab 0cbe fe66 38be
000003a0: d093 b73c 8eee ff3d a82c ef3c 0040 37bd
000003b0: 98db d93c 6bbb db3d ab81 03be bd36 d93d
000003c0: 9143 093d 234d 13bd b680 183d 0380 74bd
000003d0: d8ae d4bd 159a 393c 1870 a13d 9410 2ebe
000003e0: f5c9 3bba 6782 4d3d 4178 c03c 46ef 9c3c
000003f0: d67c c83d 1058 ddbd bde0 b13d 35ed 16bd
0.14831257 -0.18623585 0.14232181 -0.08315493 0.18855469 -0.107816845 0.062037278 -0.15587424
0.068735555 0.10247883 -0.06385978 0.040772762 -0.02338462 -0.2053068 0.22967784 -0.08170869
-0.02601867 -0.21135318 0.057782855 0.031035647 0.030591061 0.035557494 0.06442053 -0.022528235
0.008592839 -0.028096423 -0.0075997547 -0.07278329 -0.06383933 -0.07093137 0.04457564 0.057908684
0.12206102 0.050165 0.11413508 0.09887371 0.06449457 0.12738766 -0.12381951 -0.042728875
0.073321514 0.09126777 0.05732484 -0.0034022417 -0.017413639 0.000584067 0.03348596 0.02406479
0.15599571 0.03219213 -0.12057435 0.1409345 0.1156802 -0.015290955 0.15469517 0.04712149
-0.16620061 -0.020353237 0.11579877 -0.01044356 -0.051799513 0.110881604 0.07018682 0.067963034
-0.0020006723 0.043086953 -0.006569088 0.028377714 0.04529237 -0.10155688 0.01199628 -0.0888369
0.0037474034 0.048460398 0.008734008 0.11942641 -0.06913225 -0.12681691 0.038132776 -0.09066134
-0.14312707 -0.09610815 0.096828654 0.03278974 0.043735746 0.15102549 -0.10137981 -0.1851589
-0.010364636 0.2150095 0.01189928 0.09402522 0.06830469 -0.12912089 0.05349672 -0.037197467
0.0113448175 0.049419556 0.0493513 0.1021309 -0.04997908 0.042607434 -0.005366203 -0.101342835
-0.014342039 -0.03293631 -0.0911787 -0.1187899 0.052809622 -0.07843441 -0.13459432 -0.15255636
-0.013000155 0.004491235 0.09160458 -0.1065245 -0.06016836 0.048379283 0.03356532 0.05072319
0.01805697 -0.09510653 -0.09113309 0.077268414 0.012037599 -0.03813641 0.11059987 -0.19831277
0.08733749 0.17065495 -0.19721141 0.03952673 -0.11167609 -0.03535354 -0.1913575 -0.124915265
-0.024255814 -0.059103295 -0.028401079 -0.008181293 -0.09693677 0.0901833 0.0396263 -0.016428173
-0.006026851 -0.024895867 0.16348612 -0.09447982 0.011862636 -0.01151884 -0.071231484 0.006865545
0.09766676 0.022781873 0.033172064 0.010843791 0.04777793 0.014757456 0.037044674 0.11890188
0.1383163 0.03958543 -0.13950326 -0.021103363 0.13831902 -0.16270114 -0.035727415 0.12780634
0.16463159 -0.08334547 -0.2412481 -0.1101297 0.1377581 -0.05175567 -0.060123533 0.08789084
0.03195854 -0.047906656 0.113733985 -0.011887601 -0.020774841 -0.11005379 -0.009802178 -0.09962795
0.024712669 -0.0074128457 0.11602477 0.012055073 -0.033235576 -0.058088005 -0.1680168 0.14228493
-0.16862959 0.07522046 0.056299474 0.0023632797 0.06291 0.082192 -0.040397894 -0.034383558
0.0093866475 0.10957764 0.039163064 0.13484304 0.08699729 0.027252315 0.08497538 0.045383282
0.0031378865 -0.034944978 0.05809175 0.04651337 0.1059354 0.01158159 0.008098741 -0.04558017
-0.07449005 0.24971268 -0.15399799 0.22309001 -0.2702452 0.17593345 0.0312467 -0.053389844
0.018133067 -0.09438281 0.029388482 0.13318679 0.082641155 0.08086701 -0.13737352 -0.18008038
0.02240935 0.124966726 0.029196098 -0.04473877 0.026593968 0.107291065 -0.12842433 0.106061436
0.033511702 -0.035962235 0.037232123 -0.059692394 -0.10384911 0.01132824 0.07882708 -0.16998512
-0.0007163578 0.05017319 0.023494842 0.019157063 0.097894356 -0.10807812 0.086854436 -0.036847312

bias f4 [32]
00000000: 035b e9b4 b4d3 3b36 bab6 16b4 54d7 84b8
00000010: 6b2e 45bc e469 393c 6e41 bab6 a688 76b2
00000020: 8898 8c35 ff24 1b34 a9bc 7eba 8ca8 1d3c
00000030: 97cc a9b1 6fb6 0fb8 0f62 8d3b df8e 133a
00000040: bfc6 683b 0a83 a2b4 386a 103c d4a0 5d34
00000050: c627 c33b faa1 dab7 dc88 3ab9 405b f4b6
00000060: b754 3d36 fbe7 5cbb a4b1 4533 850a 72b4
00000070: d32d 3038 ed57 ceb3 168c d3b5 7f0d d734
-4.3465852e-07 2.79884e-06 -1.4036314e-07 -6.3343585e-05 -0.012034993 0.01131675 -5.550849e-06 -1.4350155e-08
1.0475205e-06 1.4448959e-07 -0.00097174436 0.009622704 -4.9418065e-09 -3.426376e-05 0.004314668 0.00056288944
0.0035518853 -3.0270195e-07 0.008814387 2.0640738e-07 0.005955669 -2.6063051e-05 -0.00017789326 -7.2823896e-06
2.8212505e-06 -0.0033707607 4.60292e-08 -2.2541833e-07 4.2004347e-05 -9.608616e-08 -1.5761495e-06 4.005669e-07

weight f4 [32]
00000000: 22f2 3c3f 0bec 133f 3a85 f33e 488f 233f
00000010: 334d 033f 2ee4 1a3f 102b 3c3f 6ed5 f83e
00000020: 390e 123f dc1c 223f bf0a 103f 4631 0f3f
00000030: 8fa2 193f 6a54 143f 916c 313f 040f 133f
00000040: 5169 ff3e 8383 123f aea1 4b3f eb77 063f
00000050: b1c6 f23e 5cbb 0a3f 32a0 1d3f 4d82 003f
00000060: 466f 453f 33e3 043f 6e6d ed3e 68c3 103f
00000070: 489c 083f adf9 153f f6c5 273f b345 0f3f
0.73806965 0.5778205 0.4756258 0.63890505 0.5128967 0.60504425 0.7350321 0.48600334
0.5705295 0.63325286 0.562664 0.5593456 0.6001367 0.57941306 0.69306284 0.5744479
0.49885038 0.5723192 0.7954358 0.5252673 0.47417215 0.5419214 0.61572564 0.50198823
0.77122915 0.5190918 0.4637255 0.56548166 0.53363466 0.585841 0.6553644 0.5596573

bias f4 [32]
00000000: 5a0d 6ebc 20e2 363d 3473 f8bc 9440 50bd
00000010: 710d 8c3c f50a 75be d712 69bc 7f27 62bd
00000020: 494a bdbd 4313 e93c 91d9 5f3d 9a3b 40bd
00000030: 0fec 41be d895 a0bd 547d 0e3e 76ee 423d
00000040: 4f61 4c3d c6bb 08bd a0ab adbd 60ba e1bd
00000050: b98d 06bc 25c1 37bd f6e2 7f3c 9a6d 513d
00000060: 5120 943c e488 0e3d 9222 d1bd f98b e03c
00000070: f16a e0bd 0239 9fba 682e 633c e59c 6cbd
-0.01452955 0.044649243 -0.03032837 -0.050842836 0.017096253 -0.23929961 -0.014225683 -0.055213448
-0.092426844 0.028451568 0.054650847 -0.04693184 -0.18937705 -0.078410804 0.13914996 0.047590695
0.04989749 -0.0333822 -0.084800005 -0.11021876 -0.0082125 -0.04486193 0.015618077 0.051129915
0.018081816 0.034798518 -0.10211672 0.027410494 -0.109578975 -0.0012147727 0.013866045 -0.057766814

running_mean f4 [32]
00000000: e0f5 e4bb 05f3 5abd 4f5e e1bb 7b7f 3d3d
00000010: c07a 03bc d23c 523d d6f0 a93c 5144 00bd
00000020: 0a8b 03bd a1fd 283b c1f6 853c 278c f3bc
00000030: 5b3d 12bc b91f 0b3c 47a7 53bd 659d ae3c
00000040: 0fb2 0e3c 7bd0 433d f028 90bc af1f 133c
00000050: 675b b83c 7980 c73c 2c96 0b3d 5ea1 a5bb
00000060: d7c1 04ba 4922 3ebc 06cd b33b 8d1a 863c
00000070: 9ed3 fb3c a024 bdbc c1df f9bb c502 de3c
-0.0069873184 -0.053454418 -0.0068776975 0.046264153 -0.008024871 0.051327534 0.020744722 -0.03131515
-0.03211502 0.002578594 0.016353013 -0.029729916 -0.008925761 0.00849145 -0.0516732 0.021315286
0.008709445 0.047806244 -0.017597646 0.008979722 0.022504522 0.024353253 0.034078762 -0.005054637
-0.0005064285 -0.011604854 0.005487087 0.016370082 0.030740555 -0.023088753 -0.0076255505 0.02710093

running_var f4 [32]
00000000: 811c 883c f42c 2c3d 485b 8f3c e23f c43d
00000010: 132e b63c ba5d cd3c b21d ad3c 3fce b93c
00000020: 3db7 a93c 4289 b23c 24fc 493d af97 063d
00000030: bdb3 403d 73d4 543d 20da 153d ef79 653d
00000040: d2a7 fb3c 7682 dd3c 7f5f 083d d509 f53b
00000050: d117 e83c 9080 b43c b25e 953d cd7d 313d
00000060: 12fa d23c e157 9b3c 61d5 c03b 91e3 073d
00000070: 81db 853c d784 5e3d c118 c53c 6171 283d
0.016615154 0.04203506 0.017499581 0.09582497 0.022238767 0.025069106 0.021132324 0.022681354
0.020717258 0.021793965 0.049312726 0.0328595 0.04704641 0.05196042 0.036584973 0.056024488
0.030719671 0.027039748 0.033294197 0.0074779787 0.028331669 0.02203396 0.07293452 0.043332864
0.025754008 0.018962802 0.0058848117 0.03317601 0.01634002 0.054325905 0.024059655 0.04112375

weight f4 [64, 32, 2, 2]
00000000: 5a9f 133d c78a 373d db90 123d 3592 283d
00000010: f775 a33c 7af5 333b a7d3 61bc ec95 863a
00000020: ac1d fb3b 4c1a e23b 933b b1ba 22e4 e7bb
00000030: 2d1f 473d 49be 7e3d 2a0b f23c 914f 973c
00000040: ba22 e7bb 92d3 093c c69c 92bc 1e9b 1abc
00000050: 2f1a b2bc 39e7 39bd b7fa 4dbb 8de3 08bb
00000060: 54a3 34bd 331e d5bc eb9f dcbc 8f6a e8bc
00000070: babe 893c ded9 403c 0bd8 073c 2731 433c
00000080: 38ce 69bc 6040 ecbb fd51 8cbb 256e a33b
00000090: 3275 0dbd 19a9 aebc 45e2 2fbd 5230 1cbd
000000a0: cc5f 1abb d5e3 a9bc 62e3 a9bb 841a 9fbb
000000b0: f15f 4bbd 1e43 b2bc ffbd e33c 0add 173b
000000c0: 3470 373c 308d 0d3d 7a2f 913b 483d 543c
000000d0: 057c 16bc e025 b9bc 7c8f 1ebc 7727 afbc
000000e0: 4f1c 043b ad69 b93c de7c 9d3c d62a 353d
000000f0: 54f2 6abc f2a6 2abd 3e82 37bb 0107 c3bc
00000100: 5898 8a3c 6738 fbbc 643b 0c3d 5ce5 333a
00000110: cf0c 11bc fb7e efbc 4159 8ebc 952b 0cbc
00000120: a365 77bd 5c09 21bd 003a 62bd 49e1 48bd
00000130: 9d94 f6bc 6577 393c f695 fab9 1740 13ba
00000140: 593e 9539 2cd3 22bd 0352 e5bc 4775 a1bc
00000150: 0099 f2bc 2f0e 81bc d17d 433c 3f07 d53b
00000160: 3102 8f3c 2ba6 203d eb3f e13b 7326 023d
00000170: 4ca5 f63b 3152 d13c d70d 2c3c 5100 583c
00000180: 6476 6e3d 2e4c 883d 40ef 0e3d 0d99 293d
00000190: 4fa7 a93b 4faa 993c dbc6 913c 812a 64bc
000001a0: 8a40 82bc 0b03 9fbc b426 3bbb 4763 18bc
000001b0: 1edc 43bc eb59 36bc 2e19 eabb 8cf0 89bc
000001c0: 0aa7 cbbc b35c 643c 9af0 663c 451d 61bb
000001d0: e2c6 ff3c 7ba4 2b3d ed9a 713c b29a b33c
000001e0: a2ec e63c 2949 183d fbd0 d43c 223f 823c
000001f0: 8f15 be3c 78f2 1a3d 8332 b03c 9262 bb3c
00000200: 6303 c2bc 15a4 e2bb 2817 a7bc 8daf bcbc
00000210: 500c 8abc e625 02bb c3e8 2abb d6ea 37bc
00000220: 3daf a3ba db6b 443b 9ea2 74b9 6572 6b3b
00000230: eae8 57bc 1a47 97bc 170e aebc 1185 8bbc
00000240: 6276 3f3c 8dd2 4b3c b7ba c63c ed25 a73c
00000250: 768e d53c 96f1 ce3b a188 80ba f4b0 8c3c
00000260: 510f 573d 021e 263d 9fe9 f43c dbf3 b93c
00000270: 01dd 1fbc ebab b8b9 9e39 f6ba f73b 3abc
00000280: 92b8 e63c a338 213c ec53 cebb 6482 473b
00000290: 1493 d93c d905 3f3c 5363 083d 7a1d e33c
000002a0: 9712 723c f2e3 ed3c c3af 433c 1654 333c
000002b0: 34a7 ce3c 0e0e 7c3c fc7d b6b8 c669 abba
000002c0: 4777 c1bc a33c d2bc 5ab2 4dbc 1ae3 87bc
000002d0: 7d5b 2e3c 6b0a dd3b 4c53 90bb 2e7d a13b
000002e0: 9566 5fbc a5af ecba 786a dbbc b58f d5bc
000002f0: 3bff 5b3c d7fe e43b 677c 50bb 4eb1 2dbb
00000300: 322e 80b8 b4b3 663c dcc2 383c 3276 a339
00000310: 7010 bb3c db05 ee3c 0ccf d73b b23e 603c
00000320: 9026 1dbb 6f93 2c3d 0cc0 323d f77a f13c
00000330: 7747 5dba 7340 7c3c d26d 13bc 1058 87bc
00000340: 79c0 d73b 6246 0a3c 00ed 273b f5b2 31bb
00000350: ed42 2dbc 0aae b73c 862e aa3b 4ddc e9ba
00000360: 8be8 4dbc b558 90bc 38ac 67bc d8a9 35bc
00000370: 6e7f 5abb f34a 42bb ce5b 7439 7d25 a53b
00000380: f532 c0bc 90b4 95bc 5aad 21bd e367 04bd
00000390: 1871 3ebc 0bc1 85bc 21ac 8b3c 44f8 bb3c
000003a0: 873f 7e3c a7be ed3c f98f 9bbc 4c7a 31bc
000003b0: 07a5 a13b 855b c53b 42f9 9f3b 1f72 45b9
000003c0: 67a6 183b 34b0 7a3b 0424 37bc 6462 02bc
000003d0: eb7b 373c 1afb 6a3c e646 1c3b ca75 bfbb
000003e0: ff92 26bc 1249 b0bb 0a00 cbbb 0993 4abc
000003f0: 7004 30bc 9f18 bdbc 7bb3 76bc d03f 12bc
0.03604064 0.044810083 0.035782676 0.04115506 0.019953711 0.0027459548 -0.013783372 0.0010268069
0.0076634493 0.0069001075 -0.0013521783 -0.007076756 0.048613716 0.06219319 0.029546339 0.018470557
-0.0070537003 0.008412259 -0.017897021 -0.009436397 -0.021741001 -0.045386527 -0.0031429955 -0.0020887584
-0.044101074 -0.026015377 -0.026931724 -0.028371124 0.016814578 0.011770694 0.008291255 0.011913574
-0.014270358 -0.0072098225 -0.0042822347 0.0049874955 -0.034535594 -0.021320866 -0.042940397 -0.03813202
-0.0023555635 -0.020738522 -0.005184577 -0.004855456 -0.049652044 -0.02176052 0.027800558 0.002317252
0.011196185 0.034558475 0.0044307085 0.012954064 -0.009184842 -0.022601068 -0.009677764 -0.021381123
0.0020158475 0.022633398 0.01922458 0.044230305 -0.014340002 -0.041663118 -0.0028001214 -0.02380705
0.016918346 -0.030666543 0.034236327 0.00068624853 -0.008853151 -0.029235354 -0.017376544 -0.008555313
-0.060399663 -0.039315566 -0.055231094 -0.049042974 -0.030100161 0.01131997 -0.00047795445 -0.0005617155
0.00028465947 -0.03975217 -0.027993208 -0.019709243 -0.029613972 -0.015753834 0.011931852 0.006501108
0.0174571 0.03922097 0.0068740747 0.03177495 0.007527029 0.025551887 0.010501347 0.013183669
0.058218375 0.06655155 0.034896135 0.041405726 0.0051774154 0.018757967 0.017795017 -0.013926149
-0.015899915 -0.01941063 -0.0028557004 -0.009301013 -0.0119543355 -0.011129837 -0.007144115 -0.016838335
-0.024859924 0.013938117 0.01409545 -0.0034349721 0.031222764 0.041904908 0.01474641 0.02192435
0.028189007 0.037179146 0.025978556 0.015899245 0.02320364 0.037828892 0.02150846 0.02287415
-0.023683256 -0.0069165328 -0.020396784 -0.023032928 -0.016851574 -0.0019859015 -0.0026078678 -0.011225423
-0.0012488138 0.0029971513 -0.00023330233 0.0035926339 -0.01317809 -0.018466521 -0.021246953 -0.017031224
0.0116859395 0.012440336 0.024258954 0.020403827 0.026068907 0.0063154204 -0.0009806344 0.017174222
0.05250484 0.04055596 0.029896555 0.022699287 -0.009757281 -0.00035223304 -0.0018785482 -0.011366836
0.028164182 0.009840163 -0.0062966254 0.003044271 0.02655939 0.011659109 0.033297848 0.027724016
0.01477494 0.029039357 0.01194376 0.010945341 0.025226213 0.01538421 -8.701903e-05 -0.0013077788
-0.023616446 -0.02566368 -0.012554729 -0.016587783 0.01064193 0.0067456267 -0.004404461 0.0049282527
-0.013635297 -0.0018057717 -0.026784167 -0.026069501 0.013427551 0.006988387 -0.003181243 -0.0026503387
-6.11212e-05 0.0140809305 0.011276927 0.00031177845 0.022834986 0.029055526 0.006585961 0.013686823
-0.0023979284 0.04213279 0.04364018 0.02947758 -0.000844113 0.015396225 -0.008998351 -0.016521484
0.006584224 0.008439632 0.002562344 -0.0027114723 -0.010575038 0.022421855 0.0051935343 -0.0017842144
-0.01256765 -0.017620424 -0.014140181 -0.011087857 -0.0033340114 -0.0029646724 0.00023303853 0.0050398693
-0.023461798 -0.018274575 -0.03947196 -0.032325637 -0.011623643 -0.016327402 0.01704985 0.02294553
0.015518076 0.029021574 -0.01898955 -0.0108323805 0.004933003 0.006022873 0.004882009 -0.00018829897
0.0023292543 0.0038251998 -0.01117802 -0.007958028 0.011198978 0.014342094 0.002384597 -0.005842899
-0.010166883 -0.0053798044 -0.006195073 -0.0123641575 -0.0107432455 -0.02308303 -0.01505744 -0.008926347

bias f4 [64]
00000000: 3354 ffb5 4d27 ebb0 160b f3b3 5dad c332
00000010: b890 0032 b9c0 0f34 b244 5d32 7e7a b233
00000020: 133a 1134 4f19 b632 333d 89b2 d7f5 5b34
00000030: 83e7 05b5 a8f4 5fb3 5084 8ab3 59a7 c133
00000040: 6c41 1634 2c5d 9d32 3243 c431 bc0b a233
00000050: 5aa8 3333 938b 3eb4 f226 32b3 3356 84b4
00000060: a938 f034 9da1 42b5 65ff 6733 9332 a134
00000070: 23da 20b3 39fe 9434 6dc6 8934 f454 45b4
00000080: 375c 04b3 17aa 0733 257a e734 e716 48b4
00000090: af2b 3933 3d82 8633 0cf8 4d34 1b0b 5235
000000a0: 6b31 bfb4 0994 8534 6e46 1a32 945e 82b4
000000b0: 0517 9eae 6a70 d3b4 1568 54b4 b681 7233
000000c0: e536 ca33 506b 89b2 c5a9 44b4 657d 98b3
000000d0: 605c 1134 d24f a2b3 52fe 2ab1 8541 1d34
000000e0: e561 4d34 6370 2db3 36ad f632 1552 1034
000000f0: 18ff ceb4 d860 5bb4 3cc9 fa34 2a29 d834
-1.9023486e-06 -1.710967e-09 -1.1317586e-07 2.2779824e-08 7.483486e-09 1.3388025e-07 1.2879513e-08 8.311052e-08
1.3525305e-07 2.1199098e-08 -1.597673e-08 2.04854e-07 -4.9883255e-07 -5.2143747e-08 -6.450193e-08 9.017703e-08
1.3993639e-07 1.8319575e-08 5.71199e-09 7.545847e-08 4.18298e-08 -1.7745906e-07 -4.1479275e-08 -2.4649634e-07
4.474471e-07 -7.250581e-07 5.401616e-08 3.0025384e-07 -3.7451297e-08 2.775212e-07 2.5662612e-07 -1.837796e-07
-3.0817514e-08 3.1586833e-08 4.3115975e-07 -1.8634783e-07 4.31134e-08 6.2635515e-08 1.9182352e-07 7.8247257e-07
-3.561248e-07 2.488089e-07 8.979994e-09 -2.4283202e-07 -7.189097e-11 -3.9383605e-07 -1.9781903e-07 5.6462987e-08
9.416343e-08 -1.59977e-08 -1.8315684e-07 -7.100861e-08 1.3537783e-07 -7.558232e-08 -2.488282e-09 1.46456e-07
1.9127727e-07 -4.0381916e-08 2.8716936e-08 1.3440906e-07 -3.8556095e-07 -2.0431196e-07 4.6712546e-07 4.0263086e-07

weight f4 [64]
00000000: 06f9 273f 5cca 093f 4173 223f 665e 1c3f
00000010: ba87 0a3f 1bc5 0c3f 266f fb3e 282b 233f
00000020: 4edd 133f 5e11 093f 4eb7 f43e dc9f 173f
00000030: 75e2 2a3f 01f3 213f 6ef9 2c3f 1b62 043f
00000040: 38a4 193f 2aea 003f dae7 fa3e 9990 ff3e
00000050: 87e8 023f f242 0c3f 5a6c 043f 4e32 1f3f
00000060: 4e94 153f b8e1 273f c4e7 073f d53d 173f
00000070: 6fe3 0d3f b577 283f a4e8 163f ed0f 303f
00000080: 6c7b 023f beba 123f df1a 223f 5aaf 023f
00000090: d5cf 083f 0f69 0a3f 77d8 133f 2913 133f
000000a0: fd73 143f 0401 283f dff4 213f 5c5e 0c3f
000000b0: 070a 1c3f 1448 1b3f 94c5 fc3e 976a 103f
000000c0: 04ae 173f 45e2 f33e 91f6 063f 0dd7 063f
000000d0: c516 233f ba44 203f 3bc1 043f 9b03 073f
000000e0: a5e4 1a3f 5d61 f63e 5b38 053f 7aed 083f
000000f0: aa2d 1f3f 8e07 073f 2cfd 153f a0b8 213f
0.65614355 0.538244 0.63457114 0.6108154 0.5411335 0.5498826 0.49108237 0.63737726
0.5775956 0.53542125 0.477961 0.592283 0.66751796 0.6326142 0.675681 0.517122
0.600162 0.50357306 0.49005014 0.49915007 0.5113606 0.5478965 0.5172783 0.62186134
0.5842942 0.65578794 0.5308802 0.59078723 0.5542516 0.6580766 0.5894873 0.687743
0.50969577 0.57316196 0.6332225 0.51048815 0.53442127 0.54066557 0.57752174 0.5745111
0.57989484 0.6562655 0.6326427 0.5483148 0.609528 0.6065686 0.4936949 0.56412643
0.592499 0.47633567 0.5271998 0.5267189 0.6370662 0.6260487 0.51857346 0.52739877
0.60505134 0.48121157 0.52039117 0.5348736 0.6217905 0.527459 0.58589435 0.6317234

bias f4 [64]
00000000: 3eb0 513d 5324 7d3c 6d87 3a3d 4a22 283d
00000010: 39b2 dd3c 9d68 943c 20d3 473b 0619 473d
00000020: f84d 1c3d dba9 af3c ab06 d73b b8e8 253d
00000030: b27d 4e3d 4660 293d e9e8 513d fbee 3f3c
00000040: de0b fe3c ac5f 853c 468c 133c ad41 a63c
00000050: e11c a63c d3a7 fd3c 6d0e 7b3c f5e4 1f3d
00000060: c166 273d 84d0 5d3d 7236 d83c eac2 3a3d
00000070: 2985 ee3c 94ab 553d ddd0 ea3c 7fbe 5d3d
00000080: 8754 d23c 4f89 263d c304 3d3d 9625 b63c
00000090: e4a9 a13c c94c 893c df7e f23c b8fa 003d
000000a0: f8ff 053d 5b98 583d fa40 393d 56d8 9a3c
000000b0: 6c48 303d 6090 203d cd17 bc3b 15ea e83c
000000c0: c5f7 1d3d 5444 68ba 2d5a fd3c b4e6 a83c
000000d0: 2736 3a3d 2f0f 373d c650 8f3b 78cf a63c
000000e0: 6b74 353d 50b3 1c3c fb3e b23c 9fab ad3c
000000f0: ed64 303d 07bb bb3c 0db7 273d 38c6 443d
0.05119347 0.015450555 0.04553931 0.041048326 0.027062522 0.01811629 0.003049083 0.04860785
0.038160294 0.021443298 0.006562074 0.04050514 0.05041284 0.04135158 0.05124751 0.011714692
0.031011518 0.016280971 0.009005612 0.020294989 0.020277442 0.030963814 0.015323264 0.03903671
0.040869478 0.054153934 0.026393149 0.04559604 0.02911623 0.052165583 0.028664047 0.05413675
0.025675071 0.04065829 0.04614712 0.02223472 0.01973433 0.016760247 0.029601512 0.031489104
0.032714814 0.052879672 0.045227982 0.018901985 0.043037817 0.039200187 0.005740142 0.028431932
0.03856637 -0.00088602793 0.030926788 0.02061782 0.0454618 0.044692215 0.0043736426 0.0203626
0.044300478 0.009564236 0.021758547 0.0212 0.043065 0.02291633 0.040946055 0.0480406

running_mean f4 [64]
00000000: d904 663d 60ea 5f3d ca32 933d 47af d73d
00000010: 4874 d1bd 655b 0bbe 17df fa3d 9930 af3d
00000020: fc4b 663d d483 9dbd 2ee7 313d b927 9d3d
00000030: 32ab a33d 12d2 d03d c509 6a3d 6ff8 9bbd
00000040: d16d b7bd 6f08 943d 61db c0bd f93e afbd
00000050: 95f0 2cbe cb4f a1bd df9b 51bd 4cdc 9a3d
00000060: a14d e33b 8b68 703d cea5 50bd 774a 833d
00000070: a54e 81bd fc52 983d 1d21 cbbc a3e2 753d
00000080: d799 8fbd e1dc 2fbc 1323 803d 3739 84bd
00000090: a796 a4bd d9d2 00bc fe73 81bd 50dc efbb
000000a0: c281 4bbb 085b 583d 7778 4e3d ea2c d8bd
000000b0: 1485 41bb 7d1b b73d b6a4 813d 1421 0bbd
000000c0: 1aa0 e93d 2f54 c1bd e149 c6bd e0c1 a0bd
000000d0: 2b1c a93d 51df 843d 4c00 bf3c 2c62 c6bd
000000e0: 2948 8d3d 92eb 41be 6f85 a0bd 8e26 a4bd
000000f0: 1222 7e3d 28c2 97bd f1f1 eb3d baca ae3d
0.056156967 0.054666877 0.071874216 0.105314784 -0.10227257 -0.13609083 0.12249582 0.08554191
0.056224808 -0.0769116 0.04343336 0.07673592 0.07991637 0.10196318 0.057138223 -0.07615744
-0.08956493 0.07228171 -0.09416843 -0.08556933 -0.1688865 -0.078765474 -0.05117404 0.075615495
0.0069367443 0.05869345 -0.050939374 0.064106874 -0.063138284 0.07437703 -0.024796063 0.06003059
-0.070117645 -0.010733814 0.0625669 -0.06456225 -0.08036547 -0.00786277 -0.06320952 -0.0073199645
-0.0031052683 0.05282119 0.050407853 -0.10555442 -0.0029528784 0.0894079 0.06330244 -0.033967093
0.1140749 -0.09439885 -0.0968206 -0.07849479 0.08257326 0.06487907 0.023315571 -0.096866935
0.06898529 -0.18937519 -0.078379504 -0.08015166 0.06204421 -0.07410079 0.11520756 0.08534761

running_var f4 [64]
00000000: b913 593c 89e8 533c 8b8b 3a3c c94c 8d3c
00000010: b2bc 143d 7272 fd3c fb5f 013d b79c 893c
00000020: 000a 0c3c 6439 8c3c 2c19 083d 9874 303c
00000030: 82d3 493c 7376 983c 1d32 543c 49dc 683c
00000040: bccd 063d 984d bb3c caaa 953c 1598 a33c
00000050: 52fb 173d 313b 9e3c 3d32 323d 9f8f 183c
00000060: 3faa 1a3c 16e6 453c af31 bd3c 4bbd 043c
00000070: 6bdc 783c f62c 753c beda 203c 6656 483c
00000080: ff6d 9d3c 17a4 243c 21d1 193c 5b6e 7f3c
00000090: 72db 8f3c 3a0c 853c 9ed9 813c 71cf 0c3c
000000a0: d8e7 103c db04 223c fe0b 253c 0507 bb3c
000000b0: a767 0e3c 562c 2e3c f700 0a3c b61c b23c
000000c0: 6658 7a3c ebd0 433c 1ec6 993c cccc 8d3c
000000d0: 2317 8f3c 4159 293c 5bc0 513c ee4d bf3c
000000e0: ccd1 ff3b c02d 103d a9d0 623c ac74 853c
000000f0: 92ed 303c 6837 6e3c 9371 943c 0458 5f3c
0.013249331 0.012933859 0.011385809 0.017248528 0.036312766 0.03093836 0.031585675 0.01679836
0.008547306 0.01711721 0.03322713 0.010769986 0.012318494 0.018611168 0.012951401 0.014212676
0.032911047 0.022864148 0.018269915 0.01996998 0.037104912 0.019315334 0.043504942 0.009311586
0.009440004 0.012078783 0.02309498 0.008101772 0.0151892705 0.014964333 0.009817777 0.01222763
0.01921749 0.010048888 0.009388239 0.015590276 0.017560694 0.016241182 0.015850838 0.00859438
0.008844338 0.009888853 0.01007366 0.022830496 0.008691705 0.010630688 0.008423082 0.021742206
0.015279865 0.011951665 0.018771227 0.017309569 0.017467087 0.010336221 0.012802209 0.02335259
0.007806992 0.03519988 0.013843694 0.016290985 0.010798829 0.014539577 0.018120563 0.013631824
